src/nkf_epoch70.pt (torch, 28131 bytes, 20 tensors)

kg_net.fc_in.0.linear_real.weight f4 [18, 9]
0	0xbeaeb97f	-0.34125897
1	0x3f2b1720	0.6683216
2	0xbe8e0db0	-0.27744818
3	0xbec25db7	-0.37962124
4	0xbf170343	-0.5898935
5	0xbd6cfe3e	-0.05785965
6	0x3c746bd4	0.014918286
7	0x3c132297	0.008980415
8	0xbd64425a	-0.05572734
9	0xbefa3713	-0.48870143
10	0x3d9262c8	0.07147747
11	0xbf06e80e	-0.5269784
12	0x3f4b5a4c	0.7943466
13	0x3f10d6c2	0.56577694
14	0x3db77d9e	0.089595065
15	0xbc51ccc3	-0.012805167
16	0x3ca5f780	0.020259619
17	0xbdbe37a3	-0.092879556
18	0xbd52ed59	-0.051495884
19	0xbf80a7a1	-1.0051156
20	0x3f8ba398	1.09093
21	0xbf6bdf62	-0.9213773
22	0x3d8dc9be	0.06923245
23	0xbb3acaa0	-0.0028502122
24	0x3ca7f5e2	0.020502988
25	0xbad41a72	-0.0016182198
26	0xbc24fd8c	-0.010070216
27	0x3f89d150	1.0767002
28	0xbf02b868	-0.5106263
29	0xbf738e85	-0.9513934
30	0x3f1bc842	0.60852444
31	0xbbe431e1	-0.006963954
32	0x3aa2c8a1	0.0012419411
33	0x3cf49fb5	0.02986131
34	0xbb9ed8fd	-0.0048476444
35	0x3c2ea824	0.010660205
36	0xbf02d65e	-0.5110835
37	0xbf29ab8d	-0.6627739
38	0x3f003739	0.50084263
39	0x3f900e43	1.1254352
40	0xbe0977e6	-0.13424644
41	0xbcbdbc92	-0.023161206
42	0x3b2c7fd3	0.0026321306
43	0x3cb02d19	0.02150588
44	0x3d56be35	0.05242749
45	0xbcfa1743	-0.03052867
46	0x3d09944f	0.033588704
47	0xbd0532cd	-0.03251915
48	0x3d98eb9a	0.074668124
49	0x3fede66d	1.8585945
50	0x3becdb6a	0.0072283046
51	0xbd4fb858	-0.050712913
52	0xbd0b88f6	-0.034066163
53	0x3dfd4913	0.123674534
54	0xbd5b84b7	-0.053593364
55	0xbddbfd3f	-0.10741662
56	0xbecc88ea	-0.39948207
57	0xbeab5283	-0.3346139
58	0x3ba2b6fa	0.00496566
59	0xbcb01c29	-0.021497803
60	0xbd91747a	-0.07102294
61	0xbd887e93	-0.06664767
62	0xbd930b00	-0.071798325
63	0x3ee23819	0.44183424
64	0x3f86dece	1.0536745
65	0x3f98d5c0	1.1940231
66	0x3f4c13ff	0.7971801
67	0x3e8efc57	0.27926895
68	0xbb9c0c37	-0.0047621983
69	0xbd4e1da9	-0.050321255
70	0xbdc52ea6	-0.09628038
71	0xbdccfcdc	-0.100091666
72	0xbe727938	-0.23679054
73	0xbf167578	-0.58772993
74	0xbf5119bc	-0.8167989
75	0xbf39487d	-0.72376233
76	0xbde1ef4e	-0.11031972
77	0xbb97b5f7	-0.004629846
78	0xbbdedb98	-0.00680108
79	0xbd2d5dad	-0.042325664
80	0xbc27ca3e	-0.010241089
81	0xbdb00709	-0.08595092
82	0x3f85d5ae	1.0455835
83	0xbf870af9	-1.0550224
84	0x3f5fea87	0.87467235
85	0xbdb5340b	-0.08847817
86	0xbbfcd83f	-0.007716208
87	0x3cac72ca	0.02105083
88	0x3c1457d8	0.009054147
89	0x3c1159de	0.008871524
90	0xbf21e8d2	-0.6324588
91	0xbeae2788	-0.34014535
92	0xbf05e72b	-0.5230586
93	0xbde7015b	-0.112795554
94	0x3d94b76b	0.07261547
95	0x3ce8c48f	0.028414039
96	0x3cdf5aeb	0.027265033
97	0xbc01528f	-0.007893219
98	0xbc273c5d	-0.010207263
99	0x3ef769bd	0.4832286
100	0x3f057718	0.5213485
101	0xbf2f2d56	-0.6842855
102	0xbf7e2d21	-0.9928761
103	0x3eebc413	0.4604803
104	0xbd9176ba	-0.071027234
105	0xbda6db30	-0.081472754
106	0x3d0c4238	0.03424284
107	0x3dc2da23	0.095142625
108	0x3ed37828	0.4130261
109	0xbec46758	-0.38360095
110	0xbea04e4b	-0.31309733
111	0x3dc2f9fe	0.095203385
112	0x3ecdbe9e	0.40184492
113	0xbddfc47a	-0.10926147
114	0x3dc9b64c	0.098492235
115	0x39ed557c	0.00045267853
116	0xbd118ca9	-0.035534535
117	0xbd14d01e	-0.03633129
118	0x3d748b14	0.059702948
119	0xbd1389b4	-0.036019996
120	0x3d1d0a2a	0.03833977
121	0xbfe25ed4	-1.7685189
122	0xbbe42ea6	-0.0069635687
123	0x3cd413bf	0.025888322
124	0x3d369abc	0.04458116
125	0x3e34b4ae	0.17647049
126	0x3ef7de27	0.48411676
127	0xbe62f479	-0.22163571
128	0x3f6da7af	0.9283399
129	0x3f6e7742	0.93150723
130	0xbd9d3dd1	-0.07677806
131	0x3cecbf05	0.028899679
132	0x3b6c92aa	0.003609816
133	0xbcd5bb7b	-0.026090374
134	0xbd150624	-0.03638281
135	0x3d8245f9	0.063610025
136	0xbe8bb45d	-0.27286044
137	0xbe116b1c	-0.14201015
138	0x3edd0d5c	0.43174255
139	0xbf330be6	-0.6994003
140	0x3cf08261	0.029359045
141	0xbd40e3fd	-0.047092427
142	0xbb93bcf1	-0.0045086076
143	0x3b994e0f	0.0046784948
144	0x3f601eff	0.87547296
145	0x3f007283	0.5017473
146	0xbe288d9c	-0.1646027
147	0xbf2dd3ef	-0.6790151
148	0xbe8b959a	-0.27262574
149	0x3d5da88b	0.054115813
150	0x3d88aeb3	0.06673946
151	0xbcb80245	-0.02246202
152	0xbd667b16	-0.056269728
153	0xbf76fe01	-0.9648133
154	0x3e9ba5cd	0.30399933
155	0x3f0609db	0.5235879
156	0xbe80839c	-0.2510041
157	0xbd3186bb	-0.04334138
158	0xbcd8b865	-0.026455114
159	0x3cb05aea	0.021527726
160	0xbc04ac1f	-0.0080976775
161	0xbd3e99de	-0.046533458

kg_net.fc_in.0.linear_real.bias f4 [18]
0	0x38ddb813	0.00010572388
1	0x3bc59be1	0.006030545
2	0x3dad5c2c	0.08464846
3	0x3da26e42	0.07931186
4	0x3d8ce6c8	0.068799555
5	0xba5d105c	-0.00084329187
6	0xbc80dbfe	-0.0157299
7	0x3d7ea9a2	0.062173493
8	0x3e4515b0	0.19246554
9	0x3e8afd64	0.27146447
10	0xb90a3b26	-0.0001318274
11	0x3d5de0a8	0.054169327
12	0x3a92a88d	0.0011189148
13	0xba4130f0	-0.0007369658
14	0x3edcff85	0.43163696
15	0x3b7312f2	0.003709015
16	0x3e8a93e7	0.27065966
17	0x3ea516e3	0.32244024

kg_net.fc_in.0.linear_imag.weight f4 [18, 9]
0	0x3e3e9e13	0.18614988
1	0xbfb1a947	-1.3879784
2	0x3f43fb8d	0.7655571
3	0x3e976d35	0.29575506
4	0xbc4de0bd	-0.012565789
5	0xbd5d36bf	-0.054007288
6	0xbca2402b	-0.019805988
7	0x3dc8e9c0	0.09810209
8	0xbcdcadea	-0.026938397
9	0xbf239452	-0.63898194
10	0x3efa1387	0.48843023
11	0xbf003174	-0.5007546
12	0x3ea71a2a	0.3263715
13	0xbebce40e	-0.36892742
14	0xbba724a0	-0.0051008016
15	0xbb920ccc	-0.004457092
16	0x3bb3f2c9	0.0054915887
17	0x3ac02740	0.0014660135
18	0xbeb7b126	-0.3587734
19	0xbe57b9a9	-0.21066917
20	0x3f69d8ab	0.91346234
21	0xbf473c99	-0.7782684
22	0x3b882bc9	0.00415561
23	0x3c02b9fc	0.007978912
24	0x3c0fa75a	0.008767927
25	0xbc767947	-0.015043563
26	0x3c1fc6fb	0.0097520305
27	0xbec3e0c3	-0.38257417
28	0xbf369cea	-0.7133318
29	0xbf373f6a	-0.7158114
30	0xbeeaf652	-0.45891052
31	0x3d1120c2	0.03543163
32	0x3b890406	0.004181388
33	0xbb0362c6	-0.0020047887
34	0xbc47a263	-0.012184712
35	0xbb992745	-0.0046738707
36	0x3ed334d5	0.41251245
37	0xbf1dd1d0	-0.61648273
38	0xbeedacf5	-0.46421018
39	0x400289f7	2.0396707
40	0x3dc2ab9e	0.0950539
41	0x3b8c999e	0.0042907735
42	0x3ba4f7ee	0.0050344383
43	0xbc1a4dc3	-0.009417954
44	0xbb80678f	-0.003918595
45	0xbcabfac3	-0.020993596
46	0xbc96dadf	-0.018414913
47	0xbd07949b	-0.033100706
48	0x3d927e8c	0.07153043
49	0xbfcbea70	-1.593092
50	0x3b81020d	0.003937012
51	0x3d7fdab8	0.062464446
52	0x3cdb75df	0.026789604
53	0x3d042afc	0.032267556
54	0x3e64eebd	0.22356696
55	0x3f4c7954	0.7987263
56	0x3fa418bd	1.282005
57	0x3f87f69b	1.0622133
58	0xbddc3488	-0.10752207
59	0xbc3f65d0	-0.011681989
60	0xbbd11106	-0.006380203
61	0x3bf2c1f0	0.007408373
62	0x3b34f697	0.00276128
63	0xbe75960d	-0.23983021
64	0x3eb6b36e	0.3568377
65	0xbe56e720	-0.20986605
66	0xbec6a8ef	-0.3880076
67	0x3d34cd0b	0.044140857
68	0x38a4033d	7.8207326e-05
69	0x3aa3d044	0.0012497981
70	0x3aba2920	0.001420293
71	0x3b6fe08a	0.0036602342
72	0x3f275872	0.6536933
73	0xbe8f282f	-0.27960345
74	0xbf174c83	-0.5910112
75	0xbf74db4c	-0.9564712
76	0x3dd0ad30	0.10189283
77	0x3b1db430	0.00240637
78	0x3b574eb5	0.003285331
79	0xbbc9c99d	-0.0061580674
80	0xbb018aaa	-0.0019766488
81	0xbe74d2ab	-0.23908488
82	0x3f41e2bd	0.757366
83	0xbf658305	-0.89653045
84	0x3f123e60	0.57126427
85	0x3cae0f34	0.021247484
86	0xbab78430	-0.0014001187
87	0xbb9b214f	-0.0047341953
88	0x3af7c02e	0.0018901879
89	0xbaa7a347	-0.0012789749
90	0x3f496c7f	0.78681177
91	0x3f86a1e7	1.0518159
92	0x3ec8aa85	0.39192596
93	0x3e934e54	0.28770697
94	0x3de82104	0.11334422
95	0xbbfeea80	-0.0077794194
96	0xbd177352	-0.036975212
97	0xbcd79912	-0.026318107
98	0xbc1f52dc	-0.009724345
99	0x3f240dcb	0.64083546
100	0x3f2a2864	0.6646788
101	0xbf1567fc	-0.5836179
102	0xbf39bf72	-0.7255775
103	0xbd08eb45	-0.033427496
104	0x3a381526	0.00070221943
105	0x3b06788f	0.0020518636
106	0x3ba5794e	0.005049861
107	0x3bc388dc	0.0059672426
108	0x3f003ff8	0.5009761
109	0xbee61d29	-0.44944122
110	0xbeb3fb8b	-0.3515285
111	0x3e81da32	0.25361782
112	0xbf752440	-0.9575844
113	0xbc19acc7	-0.009379572
114	0xbbd9fd4c	-0.00665251
115	0x3c78b398	0.015179537
116	0x3c07bae2	0.008284302
117	0x3d7d6345	0.06186225
118	0x3e4a5b4e	0.19761392
119	0xbd742caf	-0.059612926
120	0x3e68a4a7	0.2271906
121	0x3f57c319	0.8428207
122	0x3b18ad4a	0.0023296648
123	0xbd44c0db	-0.048035484
124	0xbd104476	-0.03522154
125	0xbd218dcc	-0.03944187
126	0xbf664130	-0.8994322
127	0xbd85ddbf	-0.06536435
128	0x3dd116ef	0.10209452
129	0x3e8d7243	0.27626237
130	0xbbfc5dbb	-0.007701603
131	0x3b8e5af7	0.00434434
132	0xbbb47e1e	-0.0055081984
133	0x3bd4d661	0.0064952825
134	0x3c04a673	0.008096325
135	0x3ca8a89e	0.020588215
136	0xbe6cb1e8	-0.23114741
137	0xbe06ec62	-0.1317611
138	0x3da75929	0.08171303
139	0x3fe64f1b	1.7992891
140	0xbc204d99	-0.009784126
141	0x3b8be5a4	0.0042693187
142	0xb9a9d4a7	-0.0003239263
143	0x3b8008f0	0.0039073154
144	0xbeb43957	-0.35199997
145	0x3f6dd18a	0.92897856
146	0x3c39a6a2	0.011331232
147	0xbf81941c	-1.0123324
148	0xbcd1c8b5	-0.0256084
149	0xbaeccb4e	-0.0018065961
150	0xba318f52	-0.00067733706
151	0x3bacb9ec	0.005271187
152	0xbb55bf43	-0.0032615222
153	0xbf0e3ebe	-0.55564487
154	0xbda5e65e	-0.0810058
155	0xbe8ae8da	-0.27130777
156	0x3e92bf3a	0.2866152
157	0xbbbb3bcf	-0.005713917
158	0xbc672da5	-0.014110004
159	0xbac26ed6	-0.0014834057
160	0x3bcda05d	0.0062752203
161	0xbc55cdfc	-0.013049599

kg_net.fc_in.0.linear_imag.bias f4 [18]
0	0x3a1dd544	0.0006020854
1	0x3bbc9f71	0.0057563116
2	0x3db44b53	0.088034295
3	0x3d24fac0	0.040278196
4	0x3e079436	0.13240132
5	0x39a9a796	0.00032359053
6	0x3e33b45b	0.17549269
7	0xbc529321	-0.012852461
8	0x3e0967d8	0.1341852
9	0x3e3bd51a	0.1834301
10	0x3b387191	0.0028143863
11	0x3d9ce9ab	0.07661756
12	0x3c4d4b21	0.012530119
13	0x3a8757ed	0.0010325887
14	0x3ec9656c	0.3933519
15	0x39ce97fa	0.00039404613
16	0x3eaf349f	0.34219834
17	0x3d70c410	0.05878073

kg_net.complex_gru.gru_r.weight_ih_l0 f4 [54, 18]
0	0x3e22cf9e	0.15899512
1	0xbcfb64b6	-0.030687671
2	0xbcebf353	-0.02880255
3	0xbd1585eb	-0.036504667
4	0xbddef49a	-0.10886498
5	0x3da7b360	0.0818851
6	0x3d6e1faa	0.058135666
7	0xbd3d5d61	-0.04623163
8	0x3c91f9a3	0.017819231
9	0x3d47bb5b	0.04876266
10	0x3d3e962e	0.04652994
11	0xbb9b2302	-0.004734398
12	0xbc8f8df2	-0.01752374
13	0x3dc5f560	0.09665942
14	0x3a94a842	0.0011341649
15	0xbca9e51b	-0.020739129
16	0xbc8b4164	-0.016998954
17	0xba28c35d	-0.0006437803
18	0xbd5a897a	-0.053353764
19	0xbb906836	-0.004406954
20	0xbc5ed7f7	-0.013601295
21	0x3d993409	0.07480628
22	0xbe8d2c69	-0.27572945
23	0xbc78576e	-0.015157564
24	0xbe9f9928	-0.31171536
25	0xbe09117a	-0.13385573
26	0xbe03b4eb	-0.12861983
27	0xbd259d7b	-0.04043339
28	0x3d2e3b61	0.042537097
29	0xbd9299d9	-0.0715825
30	0xbd8765f0	-0.0661124
31	0x3d498bc7	0.049205568
32	0x3e845574	0.25846446
33	0x3cc36fba	0.023856986
34	0x3df87412	0.12131514
35	0x3d4903c2	0.04907585
36	0x3e66c5f0	0.22536445
37	0xbe0afa92	-0.13572147
38	0x3db2fb96	0.087393925
39	0xbd802c77	-0.06258481
40	0xbe2f2a30	-0.17105937
41	0xbe862636	-0.26201028
42	0xbda798ca	-0.08183439
43	0xbe8a7bac	-0.2704748
44	0x3d3a5190	0.04548794
45	0xbe08e78b	-0.13369577
46	0x3cc7d4fb	0.02439355
47	0x3cdfd794	0.027324475
48	0xbbd47691	-0.006483861
49	0xbe525630	-0.2054069
50	0xbe854b79	-0.26034144
51	0xbd1ed7ee	-0.038780145
52	0x3dcb243f	0.09919023
53	0x3d501fc0	0.05081153
54	0x3db45410	0.08805096
55	0xbd4519cc	-0.048120305
56	0xbd2f195b	-0.04274879
57	0xbe090206	-0.13379678
58	0x3ddb9fba	0.10723825
59	0x3e78bf9e	0.24291846
60	0xbdc6073d	-0.09669349
61	0xbd97e19d	-0.07416079
62	0x3bf47119	0.0074597714
63	0xbde8f83b	-0.11375471
64	0x39f87cc9	0.00047395218
65	0x3d35d6d2	0.04439432
66	0x3d1cd66d	0.03829043
67	0x3e77d990	0.24204087
68	0xbc721822	-0.0147762615
69	0xbd7c0f61	-0.061538104
70	0x3dfe9d27	0.12432318
71	0x3e442f41	0.19158651
72	0xbce14841	-0.027500274
73	0xbd849181	-0.06473065
74	0xbe6b46b4	-0.2297619
75	0x3d676cb1	0.05650014
76	0xbe346e2b	-0.1762015
77	0x39141728	0.00014123006
78	0xbe8546c2	-0.26030546
79	0xbe071e0b	-0.13195054
80	0xbdaedcbf	-0.08538198
81	0xbe13d2fa	-0.1443595
82	0xbe22c743	-0.15896325
83	0xbdeb4dd1	-0.11489452
84	0xbbfd504f	-0.007730521
85	0xbd82cc2c	-0.06386599
86	0x3e0bf9bd	0.13669486
87	0x3d377049	0.044784818
88	0xbe3e9c99	-0.18614425
89	0xbd716c29	-0.05894104
90	0x3dc23533	0.09482803
91	0xba77ae3c	-0.0009448265
92	0x3daaf135	0.08346788
93	0x3ce176ce	0.02752247
94	0xbde400e1	-0.1113298
95	0xbc401034	-0.011722613
96	0xbe221343	-0.1582766
97	0xbdcce715	-0.10005013
98	0x3dd9a336	0.10626833
99	0xbd99360e	-0.07481013
100	0xbe15dc6b	-0.14634864
101	0x3d0e46da	0.034735538
102	0x3cd2da18	0.02573876
103	0xbc1430ef	-0.00904487
104	0xbe1d02c2	-0.15333083
105	0xbbf9a2ff	-0.0076183076
106	0x3c1abca2	0.009444388
107	0x3d1bacc2	0.03800655
108	0xbe92bb82	-0.28658682
109	0xbdfe0514	-0.12403312
110	0x3da4df58	0.08050412
111	0xbc810844	-0.015751012
112	0xbe8e7675	-0.2782475
113	0xbece5c97	-0.40305015
114	0x3c460cbe	0.012087999
115	0x3d60a980	0.054849148
116	0x3d4de8d0	0.050270855
117	0x3e546bec	0.20744294
118	0x3e84247b	0.25809082
119	0xbdbff069	-0.093720265
120	0xbe08cb33	-0.13358764
121	0xbe366da5	-0.17815264
122	0x3e1b19e7	0.151466
123	0xbe44d96d	-0.19223566
124	0xbe4cfb26	-0.2001768
125	0xbe167c46	-0.14695844
126	0xbcaa1a87	-0.020764602
127	0xbd9d295a	-0.07673903
128	0xbccab1a1	-0.024742903
129	0xbd8b24a8	-0.06794101
130	0xbdf992cd	-0.12186203
131	0xbdd410c9	-0.10354764
132	0x3d203866	0.039116286
133	0xbdec867f	-0.115490906
134	0x3bc8d6a5	0.0061291032
135	0xbdad7c29	-0.08470947
136	0x3d5e737f	0.054309364
137	0xbd1a9eb3	-0.037749004
138	0x3bfb9122	0.0076772133
139	0xbdaed7c7	-0.0853725
140	0xbcf4fe3f	-0.02990639
141	0xbcf112d9	-0.029427933
142	0x3ddd959e	0.10819553
143	0x3ccab929	0.024746494
144	0x3d737f3e	0.05944752
145	0x3d4b6efc	0.04966639
146	0xbe1f1f53	-0.15539293
147	0x3cabb605	0.020960817
148	0x3c0174d7	0.007901392
149	0x3df4d6d0	0.11955035
150	0x3d83f055	0.06442324
151	0x3ddb0b9d	0.106955744
152	0xba81c133	-0.0009899497
153	0x3e1a148a	0.15046898
154	0x3e44630f	0.19178413
155	0xbe064928	-0.13113844
156	0x3cee936d	0.029123032
157	0x3e21973b	0.15780346
158	0x3e1d2ded	0.1534955
159	0x3d8712e0	0.06595397
160	0xbd83218c	-0.06402883
161	0x3c6704f9	0.014100307
162	0x3e02c76d	0.12771387
163	0x3d05d16e	0.03267043
164	0xbe8178e6	-0.2528755
165	0x3df8e99d	0.12153933
166	0x3e1066b9	0.14101686
167	0xbd2e7bec	-0.04259865
168	0x3e91ae4c	0.2845329
169	0xbd18e2de	-0.037325732
170	0x3de531e0	0.111911535
171	0xbbd81a5b	-0.0065949387
172	0x3db6e114	0.08929649
173	0xbd4b7154	-0.049668625
174	0x3d5ddbee	0.05416482
175	0xbc8b5152	-0.01700655
176	0x3d42e256	0.047579132
177	0xbe086420	-0.13319445
178	0xbe5ee784	-0.21768004
179	0x3d216ddf	0.039411422
180	0xbe8519d3	-0.25996265
181	0x3cb3ca29	0.021946983
182	0xbe802856	-0.25030774
183	0x3e076544	0.13222224
184	0x3e31ecaa	0.17375436
185	0xb9fde966	-0.00048429816
186	0x3dec8530	0.11548841
187	0x3dfe71b5	0.12424032
188	0xbdd58f50	-0.10427725
189	0x3dd1032e	0.102056846
190	0x3d5d80d6	0.054077946
191	0xbde2cad1	-0.110738404
192	0xbbd586c9	-0.006516312
193	0xbdc42929	-0.09578163
194	0x3e906f1b	0.28209767
195	0xbae804a8	-0.0017701583
196	0xbd8fe9ce	-0.070270166
197	0xbdb8eca5	-0.09029511
198	0xbd860dad	-0.06545577
199	0xbde75cf5	-0.11297027
200	0xbde8b591	-0.11362756
201	0x3d94b6af	0.07261407
202	0xbded28b3	-0.115800284
203	0xbdf6a3bb	-0.12042948
204	0xbdea4b9d	-0.11440203
205	0x3d135631	0.03597087
206	0xbd12aa18	-0.035806745
207	0xbdabd55d	-0.08390305
208	0xbdd8d35f	-0.10587191
209	0xbcc2a3c2	-0.023759726
210	0xbde43f1f	-0.11144852
211	0xbb47ee92	-0.003050719
212	0x3d1de546	0.03854873
213	0xbe5ead40	-0.21745777
214	0xbd1ee427	-0.0387918
215	0x3b9565bf	0.004559248
216	0x3cab702a	0.020927507
217	0xbd538c2c	-0.05164735
218	0xbdf7dd81	-0.121027954
219	0x3c9bdf69	0.019027429
220	0x3be18ca6	0.0068832217
221	0xbe98c3dd	-0.29836932
222	0x3cea28b7	0.028583867
223	0x3de1e924	0.11030796
224	0xbdc86c92	-0.09786333
225	0xbbbba984	-0.005726995
226	0x3e145840	0.1448679
227	0x3dbe9008	0.093048155
228	0xbe39ebb4	-0.1815632
229	0xbdc84ce6	-0.09780292
230	0x3e0b0a93	0.13578252
231	0xbdc8509a	-0.097809985
232	0x3dbf37d2	0.09336819
233	0x3cc9a1b3	0.024613237
234	0x3d8d9b16	0.06914346
235	0xbd8b4a3a	-0.06801267
236	0xbc9751a1	-0.01847154
237	0xbdb99fac	-0.09063658
238	0xbe2551be	-0.16144463
239	0xbd595edd	-0.053068984
240	0xbc8a1616	-0.016856235
241	0xbd8059bb	-0.06267115
242	0xbad80d83	-0.0016483519
243	0xbd80c195	-0.06286923
244	0x3c7aa501	0.015298129
245	0x3d8aa05d	0.06768868
246	0xbd76f2e8	-0.060290247
247	0xbd254264	-0.04034652
248	0xbd8265fa	-0.06367107
249	0xbd5f337c	-0.05449246
250	0x3de8c60c	0.113658994
251	0xbc89484c	-0.016758107
252	0xbdb9c3f2	-0.09070577
253	0x3cdb01ab	0.026734194
254	0xbe645db2	-0.22301367
255	0x3d69c0bf	0.057068583

kg_net.complex_gru.gru_r.weight_hh_l0 f4 [54, 18]
0	0xbc2a2896	-0.010385653
1	0x3cd5f38f	0.026117114
2	0x3e1e682a	0.15469423
3	0xbd311f42	-0.0432427
4	0x3e25df1c	0.1619839
5	0x3da21246	0.07913642
6	0x3e038368	0.12843096
7	0xbdb5726d	-0.088597156
8	0xbd588abc	-0.052866682
9	0xbd3c8443	-0.046024572
10	0x3ca8424d	0.020539427
11	0xbd1675c9	-0.036733422
12	0x3c7489e9	0.0149254585
13	0x3cc8915e	0.024483379
14	0xbdd0f10b	-0.10202225
15	0xbdc854fa	-0.09781833
16	0x3e42643a	0.18983546
17	0x3e04329f	0.12909935
18	0x3db1bae9	0.086782284
19	0x3d4ada5d	0.049524654
20	0xbd9916c1	-0.07475043
21	0x3cc009cf	0.023442177
22	0x3d63a41e	0.055576436
23	0xbea71c9b	-0.32639012
24	0x3c1ad7a3	0.009450826
25	0xbe08ef56	-0.1337255
26	0xbdbfe064	-0.09368971
27	0xbdaf4634	-0.08558312
28	0xbcfe2ec0	-0.031028152
29	0xbe0b84a4	-0.13624817
30	0x3dc3e5ef	0.09565341
31	0xbdbf03e3	-0.09326913
32	0xbc9772a9	-0.018487291
33	0x3e2c1af9	0.16807164
34	0xbe82859f	-0.2549257
35	0xbd2efb52	-0.042720146
36	0xbe278d75	-0.16362555
37	0x3e4d0410	0.20021081
38	0x3cb1d81b	0.021709492
39	0x3e1d1657	0.15340553
40	0xbe24a324	-0.16077858
41	0xbcfdcf65	-0.030982682
42	0xbcfb4227	-0.030671192
43	0xbea7b914	-0.3275839
44	0xbe9bc530	-0.3042388
45	0xbcf21ab7	-0.029553754
46	0x3e3a4eda	0.18194142
47	0xbd789e99	-0.060698126
48	0xbc57c924	-0.013170514
49	0x3d3280ad	0.043579746
50	0x3d981cba	0.07427354
51	0x3e010bd2	0.12602165
52	0x3e746adb	0.23868887
53	0x3e4563d2	0.1927636
54	0xbd6da2d1	-0.058016602
55	0xbbfc0dfb	-0.0076920963
56	0xbd07d910	-0.03316599
57	0xbd035189	-0.03206018
58	0x3da88df7	0.08230203
59	0xbd310320	-0.04321587
60	0x3d1fb5c1	0.038991693
61	0xbdcfb03f	-0.10141038
62	0xbcd7fa09	-0.026364343
63	0xbcacf5e9	-0.021113353
64	0xbd6cb1a5	-0.057786603
65	0xbd797856	-0.060905777
66	0x3d1e0041	0.03857446
67	0xbcdb6f6c	-0.026786529
68	0xbd839b12	-0.06426062
69	0x3df80b9a	0.12111588
70	0x3e23f8b9	0.16012849
71	0x3cbcb20c	0.023034118
72	0x3d16ed5f	0.03684747
73	0x3ea5d0e6	0.3238594
74	0x3e7db7e4	0.2477718
75	0xbc94a0d9	-0.018143104
76	0xbe1eb1dd	-0.15497537
77	0x3daca027	0.08428984
78	0xbd7d59e3	-0.0618533
79	0xbeb5e991	-0.3552976
80	0xbe82b8a8	-0.25531507
81	0xbe72cb9e	-0.23710486
82	0x3c808a23	0.015690869
83	0x3c289185	0.010288601
84	0x3e41626a	0.18885198
85	0x3e8504ae	0.25980133
86	0xbbd6ef88	-0.006559316
87	0x3e4aa17c	0.19788164
88	0x3dc17e1b	0.09447881
89	0x3e02182e	0.12704536
90	0x3d7bc393	0.06146581
91	0x3edf4d8f	0.4361386
92	0x3e07a91a	0.13248101
93	0x3d5a94c4	0.05336453
94	0xbdfe0883	-0.12403967
95	0x3e4b6384	0.19862181
96	0x3e271815	0.1631778
97	0xbebc0a07	-0.367264
98	0x3b1c15fb	0.0023816812
99	0xbe0758c3	-0.13217454
100	0xbd430398	-0.04761085
101	0xbe1da19c	-0.1539368
102	0x3e923b16	0.28560704
103	0x3e3e1453	0.1856244
104	0x3dfec416	0.12439744
105	0xbe8e33bd	-0.27773848
106	0x3dd9bbc1	0.10631514
107	0x3e2fe8f3	0.17178707
108	0x3df64441	0.12024737
109	0xbe899eee	-0.26879066
110	0xbcf0903e	-0.029365655
111	0x3de06deb	0.10958465
112	0xbede0fb3	-0.43371353
113	0x3d1d6cb5	0.03843375
114	0xbe4cc947	-0.19998656
115	0xbea8c689	-0.3296397
116	0xbe968593	-0.29398784
117	0xbe060f37	-0.13091742
118	0x3e306744	0.17226893
119	0xbe704fe4	-0.23467976
120	0x3d95ee3b	0.073208295
121	0xbd2cc0e0	-0.042176127
122	0x3e299c18	0.16563451
123	0xbe412523	-0.18861823
124	0x3e8fe421	0.28103736
125	0x3e089d44	0.13341242
126	0xbda4594d	-0.08024845
127	0x3db861bc	0.09003016
128	0xbd48df77	-0.049041238
129	0x3df39643	0.118938945
130	0xbd5877b0	-0.052848518
131	0xbdb5c966	-0.08876304
132	0x3d52f15d	0.051499713
133	0xbe31f790	-0.17379594
134	0xbd9d1bb8	-0.076713026
135	0xbe2c4c25	-0.16825922
136	0x3c928e4e	0.017890122
137	0xbdca5401	-0.09879304
138	0xbb10ef33	-0.002211523
139	0x3d87addc	0.06624958
140	0x3d1ca140	0.038239717
141	0x3aa1ec27	0.0012353704
142	0xbd99407a	-0.07483001
143	0x3c270519	0.0101940865
144	0xbcbda73b	-0.02315103
145	0x3cb6cf4c	0.022315644
146	0xbcdf22af	-0.027238218
147	0xbd655157	-0.055985775
148	0x3c5579f0	0.01302956
149	0xbe0ee0b0	-0.13952899
150	0x3d879e7e	0.06622027
151	0xbd543974	-0.051812604
152	0x3d39aba0	0.04532969
153	0x3b55c5dc	0.0032619154
154	0x3d956074	0.072937876
155	0xbd934a90	-0.07191956
156	0xbd06cf0e	-0.032912306
157	0xbe0a6ec6	-0.13518819
158	0x3da9ad67	0.08285027
159	0xbc33b55d	-0.010968533
160	0x3be2a12f	0.0069161872
161	0xbdb69f15	-0.08917061
162	0x3c241d61	0.01001677
163	0x3d4409c1	0.047860865
164	0x3d5360c2	0.051605947
165	0x3d9dfa4b	0.07713755
166	0xbd42aef8	-0.047530144
167	0x3dd885c0	0.10572386
168	0x3dd1f3e2	0.10251595
169	0xbe068702	-0.13137439
170	0x3c0319b9	0.008001738
171	0xbdc4dd4e	-0.09612523
172	0x3e1df595	0.15425713
173	0xbdefe77a	-0.117140725
174	0xbd0f64f3	-0.035008382
175	0xbd9f7261	-0.07785488
176	0x3b7ae79c	0.0038285023
177	0xbc719583	-0.014745119
178	0xbd1e0ae8	-0.03858462
179	0x3dc157bd	0.09440563
180	0x3d0cb71e	0.03435432
181	0xbded0bc8	-0.11574513
182	0xbd3c649a	-0.04599438
183	0xbc0bcbc2	-0.008532466
184	0xbde2b82e	-0.11070286
185	0x3b927856	0.0044699116
186	0xbb3e732b	-0.0029060345
187	0xbe2c5751	-0.16830184
188	0xbe7df6c9	-0.24801172
189	0xbe2e141d	-0.1699986
190	0xbda72e35	-0.0816311
191	0xbdf5c20a	-0.11999901
192	0x3d9dec41	0.077110775
193	0xbde2c82b	-0.11073335
194	0x3db53bd0	0.08849299
195	0x3bef598f	0.0073043774
196	0x3e522469	0.20521702
197	0x3d56a403	0.052402508
198	0xbd068010	-0.032836974
199	0x3d99a430	0.075020194
200	0x3d4ec26a	0.050478376
201	0xbd14ad98	-0.036298364
202	0xbd4be290	-0.049776614
203	0xbabe5ae9	-0.0014522943
204	0x3ceb7d09	0.028746145
205	0xbd70908b	-0.058731597
206	0xbd06f0cd	-0.03294449
207	0xbdfce211	-0.12347806
208	0xbd5c3c80	-0.053768635
209	0xbd827912	-0.063707486
210	0xbd86f13e	-0.06588982
211	0xbd800525	-0.06250981
212	0x3e1cef8b	0.15325753
213	0xbdb05e44	-0.0861173
214	0x3e568a08	0.20951092
215	0x3de55fcf	0.11199915
216	0x3d2fd736	0.04292985
217	0xbe275292	-0.16340092
218	0xbccc8fc9	-0.024970906
219	0x3de661c7	0.11249118
220	0xbe469950	-0.19394422
221	0x3d7631e3	0.06010617
222	0x3d0e04be	0.03467249
223	0xbecc70c1	-0.39929774
224	0xbe8dfcd1	-0.27731946
225	0xbe234a49	-0.15946306
226	0x3e47115a	0.19440213
227	0xbe93111f	-0.28724
228	0xbbb1f789	-0.00543112
229	0x3d552e2c	0.052045986
230	0x3dfa5f0f	0.12225162
231	0x3a631360	0.000866225
232	0x3e8a60a8	0.27026868
233	0x3e50eacb	0.20402066
234	0xbe20a43c	-0.1568765
235	0x3cbe8fdb	0.023261955
236	0xbda081d0	-0.0783726
237	0x3e1dcb45	0.15409572
238	0xbdaa8d0f	-0.08327686
239	0xbe654769	-0.22390522
240	0xbd93d78e	-0.07218848
241	0xbe1d9908	-0.15390408
242	0xbdda5e18	-0.10662478
243	0xbd8941c2	-0.067019954
244	0x3c82c45c	0.015962772
245	0x3d9681b5	0.073489584
246	0xbb9baa3c	-0.004750518
247	0x3d07fb19	0.03319845
248	0x3d467e57	0.04846033
249	0x3e54bf6a	0.20776144
250	0xbb7abb7f	-0.003825873
251	0xbdca8300	-0.098882675
252	0x3cbe8186	0.023255121
253	0x3e260fd8	0.16216981
254	0xbdba244c	-0.09088954
255	0xbd1df132	-0.0385601

kg_net.complex_gru.gru_r.bias_ih_l0 f4 [54]
0	0x3e0e5e46	0.1390315
1	0x3d187c8f	0.037228163
2	0x3dbd2680	0.09235859
3	0x3c86648c	0.016405366
4	0x3e0b4043	0.13598733
5	0x3d941bbd	0.07231853
6	0x3dd07261	0.10178066
7	0x3e2de8a3	0.16983275
8	0x3e5548d4	0.20828563
9	0x3e1a680a	0.1507875
10	0x3e5b4fd9	0.21417178
11	0x3e17fa0d	0.1484148
12	0x3e3e4d98	0.18584287
13	0x3d2fc6f3	0.042914342
14	0x3d9c4d9e	0.07631992
15	0x3dc687c9	0.09693868
16	0x3e4375e5	0.19087942
17	0x3dabac27	0.08382445
18	0xbf2279a8	-0.6346688
19	0xbf34ba80	-0.70597076
20	0xbf24d1a4	-0.64382386
21	0xbf11ad21	-0.569048
22	0xbf21d88d	-0.63221055
23	0xbf0ee68f	-0.55820554
24	0xbf2bd4e6	-0.6712173
25	0xbe80f707	-0.25188467
26	0xbf294ccc	-0.6613281
27	0xbf1385da	-0.57626116
28	0xbf1b21a5	-0.6059821
29	0xbeefe106	-0.46851367
30	0xbf1c05a4	-0.60946107
31	0xbf108e28	-0.56466913
32	0xbef7d9ea	-0.48408443
33	0xbf309ca1	-0.68988997
34	0xbe8dbb03	-0.2768174
35	0xbf21ac59	-0.63153607
36	0xbe317717	-0.17330585
37	0xbdb412b6	-0.08792631
38	0x3e0587d6	0.13040099
39	0x3e3c8c76	0.18412957
40	0xbaff0df2	-0.0019459112
41	0x3e2bad04	0.16765219
42	0x3e121651	0.14266326
43	0xbee57a9e	-0.44820112
44	0xbed98f47	-0.42492124
45	0xbea99221	-0.331193
46	0x3e28a5a4	0.16469437
47	0xbcf17736	-0.02947579
48	0xbe954155	-0.29151407
49	0x3ed4a6f1	0.41533616
50	0xbc2c2d82	-0.010508897
51	0xbea91237	-0.3302171
52	0x3de9f62e	0.11423908
53	0x3cab4676	0.020907622

kg_net.complex_gru.gru_r.bias_hh_l0 f4 [54]
0	0x3e0e5d6c	0.13902825
1	0x3cdd9360	0.027047813
2	0x3dbc1915	0.091844715
3	0x3c8ad0b9	0.01694523
4	0x3e09b610	0.13448358
5	0x3d73b58a	0.0594993
6	0x3dd2a1dd	0.10284779
7	0x3e2de65a	0.16982403
8	0x3e536fa3	0.20648055
9	0x3e1ad358	0.15119684
10	0x3e5ad94f	0.21371959
11	0x3e17fa04	0.14841467
12	0x3e3d8f21	0.1851163
13	0x3d2fcb06	0.042918228
14	0x3d9b5e6b	0.07586368
15	0x3ddcc754	0.10780206
16	0x3e3bc479	0.18336667
17	0x3dabaf61	0.0838306
18	0xbf2287cc	-0.6348846
19	0xbf34ea6c	-0.706702
20	0xbf246f29	-0.64232117
21	0xbf1179cb	-0.56826466
22	0xbf1b2467	-0.6060242
23	0xbf12ccdf	-0.5734386
24	0xbf2c9657	-0.674169
25	0xbe814b6c	-0.25252855
26	0xbf2a8fa2	-0.66625416
27	0xbf137de7	-0.57613987
28	0xbf130ff2	-0.57446206
29	0xbef1e6d9	-0.47246435
30	0xbf1a9052	-0.60376465
31	0xbf10b109	-0.56520134
32	0xbef601f6	-0.4804837
33	0xbf33d5ab	-0.70247906
34	0xbe8daa32	-0.2766891
35	0xbf21c7ea	-0.6319567
36	0xbcd7aebb	-0.026328435
37	0x3f09bb8b	0.5380179
38	0xbdb90867	-0.09034806
39	0x3e1ad51d	0.15120359
40	0xbe9745c3	-0.2954541
41	0xbdc2778d	-0.09495459
42	0x3da43810	0.080185056
43	0xbeb8439c	-0.35989082
44	0xbf3b103e	-0.7307166
45	0xbf23be39	-0.6396213
46	0x3e24a274	0.16077596
47	0xbdd55c3b	-0.10417982
48	0xbe5b503d	-0.21417327
49	0x3e0727cd	0.13198777
50	0x3c1df931	0.009641931
51	0x3f86d212	1.0532858
52	0xbe2af830	-0.16696239
53	0x3e5c5beb	0.21519439

kg_net.complex_gru.gru_i.weight_ih_l0 f4 [54, 18]
0	0xbc9bc1d2	-0.01901332
1	0x3cac01c2	0.020996932
2	0xbde77238	-0.113010824
3	0xbc9e3962	-0.019314472
4	0xbd50d6bc	-0.050986037
5	0xbe4ebb3b	-0.2018861
6	0xbdae6cab	-0.085168205
7	0xbd1c9f31	-0.038237754
8	0xbd383d68	-0.044980437
9	0xbd88b9aa	-0.066760376
10	0xbc28a0a6	-0.010292208
11	0x3c5c1e88	0.013435014
12	0x3d025193	0.031816076
13	0xbdc9157b	-0.0981855
14	0xbbcdc3e9	-0.006279458
15	0xbdebf01b	-0.11520406
16	0xbc38362a	-0.0112433825
17	0x3d12a641	0.035803083
18	0x3b63a57a	0.0034736083
19	0x3cff89d2	0.031193648
20	0x3dde314c	0.108492464
21	0x3c98570b	0.018596193
22	0x3dcc4826	0.09974699
23	0xbcdf3d1a	-0.027250815
24	0xbd550cbf	-0.05201411
25	0x3e045c32	0.12925795
26	0x3d00a3ff	0.0314064
27	0x3db1a048	0.08673149
28	0x3d174fc8	0.03694132
29	0x3e379fff	0.17932127
30	0xbc50be96	-0.012740752
31	0x3d8538a1	0.06504942
32	0xbd510c37	-0.05103704
33	0xbd61a59e	-0.055089585
34	0x3dc3f931	0.09569014
35	0x3dc2e6e8	0.09516698
36	0xbda952ac	-0.082677215
37	0xbdda39cb	-0.106555544
38	0xbdae084f	-0.084976785
39	0xbd3711fb	-0.044694882
40	0xbd8edcb9	-0.06975693
41	0xbd264711	-0.040595118
42	0xbaa76463	-0.0012771006
43	0xbd6581c8	-0.056031972
44	0xbd800e4d	-0.06252728
45	0x39ff5ba0	0.00048705656
46	0xbd9c7005	-0.076385535
47	0xbd88bc48	-0.06676537
48	0xbd687778	-0.05675456
49	0xbd37340d	-0.044727374
50	0x3d2ce571	0.042211
51	0xbd8696b6	-0.065717146
52	0x3d1caaba	0.038248755
53	0x3cc93501	0.024561407
54	0xbdfc4345	-0.12317518
55	0xbdda18f2	-0.10649289
56	0xbe16dc36	-0.14732441
57	0xbdd35f82	-0.10320951
58	0xbe4b8ade	-0.19877192
59	0xbdabc75f	-0.083876364
60	0xbdcb1246	-0.09915595
61	0xbda484da	-0.08033152
62	0xbdd9a520	-0.10627198
63	0xbcb10969	-0.021610932
64	0xbdf66478	-0.12030882
65	0xbe306769	-0.17226948
66	0xbda7dfcd	-0.081969835
67	0xbd9d3014	-0.07675186
68	0xbcd7cbcf	-0.0263423
69	0xbd966da1	-0.07345129
70	0xbd86d7ee	-0.06584154
71	0xbd58179a	-0.052756883
72	0x3d660b04	0.05616285
73	0xbca9a4e5	-0.02070851
74	0xbdca37fa	-0.09873958
75	0xbc59eade	-0.013300626
76	0xbdc52231	-0.09625662
77	0xbe2982a2	-0.16553739
78	0xbd3968df	-0.04526603
79	0xbd78fc6a	-0.060787596
80	0xbdb59c5c	-0.08867714
81	0xbd14b989	-0.036309753
82	0x3dc825dc	0.09772846
83	0xbd84ef56	-0.06490962
84	0x3d0f6275	0.035006005
85	0xbdfe0c40	-0.1240468
86	0xbd3e88c4	-0.04651715
87	0xbd49d488	-0.04927495
88	0xbaebf6ec	-0.0018002666
89	0x3d3d6c96	0.046246134
90	0xbd521d35	-0.051297385
91	0xbccdbc5f	-0.025114236
92	0xbd7ae332	-0.061251827
93	0xbda4dc1c	-0.08049795
94	0xbd888569	-0.06666071
95	0x3d8a7eab	0.06762441
96	0xbd131b84	-0.035914913
97	0xbd60429a	-0.054751016
98	0xbd4e5333	-0.050372314
99	0xbd575489	-0.052570853
100	0xbd85bbd0	-0.06529963
101	0xbcda05a1	-0.026614012
102	0xbc3a8f1a	-0.011386657
103	0x3d1b09ba	0.037851073
104	0xbcefa18e	-0.02925184
105	0x3d6daf58	0.05802855
106	0x3c192d3a	0.009349162
107	0xbd73c74d	-0.05951624
108	0x3d0cbc6d	0.034359384
109	0x3ca65216	0.020302814
110	0xbca47b55	-0.02007834
111	0x3be681bd	0.007034509
112	0xbcb20c33	-0.021734333
113	0x3d1ee49d	0.03879224
114	0xbc96fa27	-0.018429829
115	0xbc3cb1df	-0.011517017
116	0xbb9090e5	-0.004411804
117	0xbba8f98f	-0.005156703
118	0x3cbd5490	0.023111612
119	0xbc382370	-0.011238918
120	0x3cfab646	0.030604493
121	0x3cde17b3	0.02711091
122	0x3cd4242a	0.02589615
123	0x3d0a0798	0.03369865
124	0x3c2c2f2e	0.010509295
125	0x3d53d444	0.051716104
126	0x3bf481b9	0.007461753
127	0xba9c294d	-0.0011914164
128	0xbd1d76cc	-0.03844337
129	0xbbc8bdb3	-0.0061261295
130	0xbde53f0a	-0.11193664
131	0xbccd3af9	-0.025052534
132	0xbd2d8207	-0.042360332
133	0xbcd3c2eb	-0.02584978
134	0xbd34ace2	-0.044110186
135	0xbc5df3dc	-0.01354691
136	0x3c2f3b30	0.010695264
137	0xbcd7e91f	-0.026356278
138	0x3cb3b480	0.021936655
139	0xbcbbdc93	-0.022932326
140	0x3aac5a88	0.0013149539
141	0xbbe267cb	-0.0069093457
142	0xbc86a500	-0.0164361
143	0x3d04ebbe	0.032451384
144	0xbce9b502	-0.028528694
145	0x3b891d28	0.004184384
146	0xbc150538	-0.0090954825
147	0x3c25018d	0.0100711705
148	0x3d49edaa	0.04929892
149	0xbd4ea153	-0.05044682
150	0x3bffce0f	0.0078065465
151	0x3b90f666	0.004423904
152	0x3d0df5d8	0.034658283
153	0x3d13734f	0.03599864
154	0xbc4ee04f	-0.0126267215
155	0xbc87e93d	-0.016590709
156	0xbd3caec3	-0.046065103
157	0xb91f8afb	-0.00015215196
158	0xbc39e28b	-0.011345516
159	0xbda1d992	-0.07902826
160	0x3a89837d	0.0010491457
161	0x3cd1825d	0.025574857
162	0xbd0e6d1f	-0.034772035
163	0xbcd7242a	-0.026262362
164	0x3db0cd2d	0.08632884
165	0x3d378e2a	0.044813313
166	0x3d8af560	0.06785083
167	0xbdda61a9	-0.106631584
168	0x3c5e840c	0.013581287
169	0x3b8fbdcf	0.0043866406
170	0x3d4e17e4	0.050315753
171	0x3d9ff13e	0.07809685
172	0x3ba0c637	0.0049064416
173	0x3b08b125	0.002085754
174	0xbbb4e6b5	-0.0055206665
175	0xbd9e4a57	-0.07729023
176	0x3bf382f1	0.007431381
177	0xbdc15335	-0.094396986
178	0xbb881034	-0.004152322
179	0x3b8eee63	0.004361914
180	0x3c17a781	0.009256245
181	0xbdc72538	-0.09723896
182	0xbcec8919	-0.028873967
183	0xbca035f1	-0.019556971
184	0x3cef61ec	0.029221497
185	0xbe006005	-0.12536629
186	0x3d87f36c	0.06638226
187	0xbd823059	-0.06356878
188	0x3d502f38	0.05082628
189	0xbb5ca18f	-0.0033665632
190	0x3d0f953d	0.035054434
191	0xbd3b076a	-0.045661367
192	0x3d0b7e74	0.034056142
193	0xbdfba94c	-0.1228815
194	0xbd0c04dd	-0.034184325
195	0xbdd99ca4	-0.1062558
196	0x3d18ecba	0.037335135
197	0x3c340c36	0.010989239
198	0xbea3e08b	-0.3200725
199	0xbe959481	-0.29214862
200	0xbf04b48c	-0.5183799
201	0xbef4470b	-0.4771045
202	0xbef04faf	-0.46935794
203	0x3f9d3583	1.2281955
204	0xbe86cea4	-0.2632953
205	0xbebc2ab3	-0.36751327
206	0xbea71e61	-0.32640365
207	0xbe942f34	-0.28942263
208	0xbe8cff7c	-0.2753867
209	0xbeb452c9	-0.3521941
210	0x3e5631a0	0.20917368
211	0x3f7dc1c2	0.99123776
212	0xbe0c7d67	-0.13719712
213	0x3f2727d2	0.65295136
214	0xbd98a921	-0.07454134
215	0xbe493b71	-0.19651581
216	0xbd4c20bb	-0.0498359
217	0xbd0e5dbe	-0.03475737
218	0xbc8e4d4b	-0.01737084
219	0x3c0f83d9	0.008759462
220	0xbdb9fdc2	-0.090816036
221	0x3e290751	0.16506697
222	0xbd3962f3	-0.04526038
223	0xbd6cbd19	-0.057797525
224	0xbcfa9ce4	-0.03059239
225	0x3bb98d95	0.00566263
226	0xbbf8111e	-0.0075704
227	0xbd8adb7f	-0.06780147
228	0x3c117e23	0.008880171
229	0x3e120f98	0.14263761
230	0x3cc5d5bf	0.024149774
231	0x3d7c2979	0.06156299
232	0xbcc8137e	-0.024423357
233	0x3c915c22	0.017744128
234	0x3de51133	0.11184921
235	0x3d9a822d	0.0754436
236	0x3dc2f39f	0.09519123
237	0x3dabdca2	0.08391692
238	0x3c555b59	0.013022267
239	0xbda84437	-0.08216136
240	0xbd72ed9e	-0.05930864
241	0x3e09a291	0.1344092
242	0x3c4e8bec	0.012606602
243	0xbd0eaa6f	-0.034830507
244	0x3d8f3f26	0.069944665
245	0x3d493822	0.049125798
246	0xbcd440ee	-0.025909867
247	0xbc684f18	-0.014179014
248	0xbb9f89da	-0.004868728
249	0xbd5abbee	-0.05340188
250	0xbd169c6f	-0.03677028
251	0x3df8a8dc	0.12141582
252	0xbdac211c	-0.084047526
253	0xbcf2bcb3	-0.029630994
254	0x3bbdd5be	0.0057933023
255	0x3d77a71d	0.060462106

kg_net.complex_gru.gru_i.weight_hh_l0 f4 [54, 18]
0	0x3ed3c767	0.4136307
1	0x3e3110df	0.17291592
2	0xbd91c8c2	-0.0711837
3	0xbd49a847	-0.049232747
4	0x3e43ae58	0.19109476
5	0xbc88a595	-0.016680518
6	0xbd8cbcca	-0.06871946
7	0xbe7f8406	-0.24952707
8	0x3dba6b9c	0.09102556
9	0x3e582345	0.21107204
10	0xbe82d317	-0.25551674
11	0x3e879352	0.26479584
12	0xbe1dd8b4	-0.15414697
13	0x3e80fa8b	0.2519115
14	0x3b297e56	0.0025862656
15	0x3dd4d9c4	0.10393098
16	0xbe8972d6	-0.26845425
17	0x3e05affe	0.13055417
18	0x3d8f8663	0.07008054
19	0x3c989dc4	0.018629916
20	0x3b42433b	0.0029642123
21	0x39f9f90d	0.00047678538
22	0x3dd39813	0.1033174
23	0xbd849105	-0.06472973
24	0xbc84d263	-0.016213601
25	0xbd0b59bd	-0.034021128
26	0xbca09fae	-0.019607391
27	0xbc82047c	-0.015871279
28	0xbd4ad916	-0.049523436
29	0xbd3ab72d	-0.045584846
30	0x3c8b1e60	0.016982257
31	0x3d116215	0.03549393
32	0xbc9c5964	-0.019085594
33	0xbc1f57fd	-0.009725568
34	0xbd934c6e	-0.07192312
35	0xbbcb51f9	-0.0062048403
36	0x3dd6d736	0.10490267
37	0x3df2159e	0.118205294
38	0xbeb5cd9e	-0.35508436
39	0xbe58685f	-0.21133564
40	0x3dd5ba4e	0.104359254
41	0xbe212058	-0.15734994
42	0x3d386f40	0.04502797
43	0x3c64f2be	0.01397389
44	0x3e070774	0.13186437
45	0xbdc22c41	-0.09481097
46	0xbe0b9fcb	-0.13635175
47	0x3e2f326a	0.17109075
48	0xbd657c4f	-0.056026753
49	0x3daf70a6	0.08566408
50	0xbe63e8a4	-0.22256714
51	0xbded37d7	-0.11582916
52	0xbd8fc36c	-0.07019696
53	0xbdc03efa	-0.09387012
54	0x3de06319	0.109564014
55	0x3d82bdec	0.06383881
56	0xbe12cdcf	-0.14336322
57	0x3dbf54cd	0.09342346
58	0xbe0a0715	-0.13479264
59	0xbb366ea3	-0.002783694
60	0x3be16e6f	0.00687962
61	0xbda1b20f	-0.0789529
62	0x3e2078d7	0.15671097
63	0x3e032723	0.12807898
64	0xbe2ced86	-0.16887483
65	0x3d9f9e17	0.07793825
66	0xbda1971a	-0.078901485
67	0x3ea343a8	0.31887555
68	0xbea8dbc2	-0.32980162
69	0xbc981943	-0.018566733
70	0x3ec12189	0.37720898
71	0xbbfaa510	-0.0076490715
72	0xbcce9082	-0.025215391
73	0x3dd9b7fa	0.10630794
74	0xbd56e523	-0.052464616
75	0xbe5b48c4	-0.21414477
76	0x3ea0c1ed	0.31397954
77	0xbe47db4c	-0.19517249
78	0xbde22685	-0.11042503
79	0xbde74beb	-0.11293777
80	0xbd3ce97f	-0.046121117
81	0x3c6882f1	0.014191375
82	0xbdb9f78f	-0.09080421
83	0xbdf74b38	-0.12074894
84	0xbd57118e	-0.052506976
85	0xbbe21e67	-0.006900597
86	0xbd7fc876	-0.062447034
87	0xbd038188	-0.032105953
88	0xbeac8324	-0.33693802
89	0x3d7d253b	0.061803084
90	0x3df5f53f	0.120096676
91	0x3deb43b5	0.114875235
92	0x3e03c23b	0.12867062
93	0x3ddd9d56	0.10821025
94	0x3ce736c9	0.028224366
95	0xbd18f1aa	-0.037339844
96	0xbdf94b21	-0.12172533
97	0xbe029fcb	-0.12756269
98	0x3cf6ca2b	0.030125698
99	0x3ded2aac	0.11580405
100	0xbe33629d	-0.17518087
101	0x3c94af1b	0.018149903
102	0xbdad5731	-0.08463896
103	0x3e83cba5	0.25741306
104	0xbe13e604	-0.14443213
105	0xbb2884e5	-0.0025713977
106	0x3dab7287	0.08371454
107	0x3da34903	0.0797291
108	0x3dea9810	0.11454785
109	0x3da42de3	0.08016565
110	0xbda75f10	-0.081724286
111	0xbde8be15	-0.1136438
112	0x3df3132b	0.118688904
113	0xbe1c4a0b	-0.1526262
114	0xbd874ebe	-0.06606816
115	0xbd9c3e92	-0.07629122
116	0x3e00a92c	0.12564534
117	0xbdbccbc2	-0.09218551
118	0xbe0712dc	-0.13190788
119	0x3de58daa	0.11208661
120	0xbd2c90fb	-0.04213045
121	0x3d8069e4	0.06270197
122	0xbe79c733	-0.24392395
123	0xbdf293d3	-0.118446015
124	0xbdc664f7	-0.09687226
125	0xbcef1db6	-0.029188972
126	0x3e6c782a	0.23092714
127	0x3df28372	0.118414775
128	0xbe0b27bd	-0.13589378
129	0xbde549a7	-0.11195689
130	0x3e602e18	0.21892583
131	0xbe064776	-0.13113198
132	0xbdf02dae	-0.11727463
133	0xbe2f9509	-0.17146696
134	0x3de10b0a	0.10988434
135	0xbd5b5ab4	-0.053553298
136	0xbe3ff404	-0.18745428
137	0x3e1a95f7	0.1509627
138	0xbdbd9b65	-0.09258155
139	0x3dc9a703	0.09846308
140	0xbe7fe7d1	-0.24990775
141	0xbdfe0480	-0.12403202
142	0xbe4595a6	-0.19295368
143	0x3d06a41d	0.032871354
144	0xbd2e4d2b	-0.04255406
145	0x3cde9238	0.027169332
146	0x3dc98890	0.098405
147	0x3c29be77	0.010360352
148	0x3a954741	0.0011389033
149	0xbda76c57	-0.08174961
150	0xbdad6e11	-0.08468259
151	0xbd169299	-0.0367609
152	0x3d408944	0.047005907
153	0x3a7dd93f	0.0009683556
154	0xbc9af5b9	-0.018915998
155	0xbdeeffe6	-0.116699025
156	0x3cd2cd5f	0.025732694
157	0x3c82fa66	0.01598854
158	0xbc81659b	-0.01579552
159	0x3ce28021	0.027648987
160	0x3ba13fd1	0.0049209376
161	0x3d16b4e3	0.0367936
162	0x3e157c36	0.14598164
163	0x3da3248a	0.07965954
164	0xbd80d64a	-0.062908724
165	0xbd9e9a1b	-0.07744237
166	0x3e114c0e	0.14189169
167	0xbe0156f9	-0.12630834
168	0xbbc93914	-0.0061408374
169	0xbd49e75b	-0.049292903
170	0x3d7fd92b	0.062462967
171	0x3d257c4c	0.04040174
172	0xbda58199	-0.080813594
173	0x3db7c53f	0.089731686
174	0xbc9ceede	-0.01915687
175	0x3d8064b9	0.06269211
176	0xbd9246dc	-0.071424216
177	0xbcc27cc6	-0.023741137
178	0xbe3aa960	-0.18228674
179	0x3b92a61f	0.0044753696
180	0x3e689d83	0.22716336
181	0x3de94c25	0.113914765
182	0xbd4604cc	-0.04834442
183	0xbd4f448d	-0.050602484
184	0x3dba1528	0.090860665
185	0xbd48a1ed	-0.04898255
186	0xbd91ba29	-0.07115585
187	0xbe142720	-0.1446805
188	0x3cc04954	0.023472466
189	0x3da94cb4	0.08266583
190	0xbe2479da	-0.16062108
191	0x3d8375cc	0.06418952
192	0xbddc62d8	-0.107610404
193	0x3e0b65e9	0.13613094
194	0xbd1412f6	-0.036150895
195	0x3d397699	0.04527912
196	0xbdec30f9	-0.11532778
197	0x3d9fbd88	0.07799822
198	0x3e20e1cc	0.15711135
199	0x3da5da00	0.08098221
200	0x3e0c2189	0.13684668
201	0x3eb1a547	0.3469641
202	0x3db28935	0.087175764
203	0x3e8de64a	0.2771476
204	0x3db78c00	0.0896225
205	0x3cf79bec	0.030225717
206	0xbdc005a6	-0.09376077
207	0x3d886e80	0.06661701
208	0xbd87a6a9	-0.06623585
209	0x3eba0e92	0.3633924
210	0x3cc9311a	0.024559546
211	0xbbd2eecc	-0.006437158
212	0x3e99e9b6	0.3006112
213	0x3e522a4b	0.20523946
214	0xbea5180b	-0.32244906
215	0xbe19c9ea	-0.1501843
216	0x3c7d0442	0.01544291
217	0x3d404256	0.046938263
218	0x3e028416	0.127457
219	0x3de6a572	0.11262025
220	0xbc8a1f5b	-0.016860655
221	0x3c2b41c1	0.010452689
222	0xbd865c00	-0.06560516
223	0xbd9661b4	-0.07342854
224	0xbc91fc3f	-0.017820476
225	0x3d4e4668	0.050360113
226	0xbd88d56d	-0.06681333
227	0x3d2b509d	0.041824926
228	0xbd44d5fd	-0.048055638
229	0x3da54c5f	0.08071207
230	0xbbebb910	-0.007193692
231	0x3d58d20d	0.052934695
232	0x3d4c36ac	0.049856827
233	0x3d6c451c	0.057683095
234	0x3e8a1e4f	0.2697625
235	0x3d5fc973	0.054635476
236	0x3db08a62	0.086201444
237	0xbca9816f	-0.020691602
238	0x3e683410	0.2267611
239	0xbcda7dd1	-0.026671322
240	0x3cef7914	0.02923254
241	0xbce67fa0	-0.028137028
242	0x3a0f216a	0.0005459996
243	0x3e1a0e96	0.15044627
244	0xbd504071	-0.050842706
245	0x3deaaaee	0.114583835
246	0xbd670723	-0.05640329
247	0x3d647a9c	0.055780992
248	0x3d17df21	0.037078027
249	0x3d9578f4	0.072984606
250	0xbe4addba	-0.19811144
251	0x3ceebf5b	0.02914398
252	0x3d1f1fba	0.038848616
253	0x3d8a0dcc	0.06740913
254	0xbd82f901	-0.0639515
255	0x3d4bb5ae	0.04973381

kg_net.complex_gru.gru_i.bias_ih_l0 f4 [54]
0	0xbd558eb1	-0.052138034
1	0x3da9b234	0.08285943
2	0x3e28d7d2	0.16488579
3	0x3de35f7a	0.11102195
4	0x3d0b58d5	0.034020264
5	0x3e2de05a	0.16980115
6	0x3d6f0635	0.05835553
7	0x3dc2fb0e	0.09520541
8	0x3d823ed6	0.06359641
9	0x3dc90e80	0.09817219
10	0x3ddeb61a	0.10874577
11	0xbd7addd0	-0.061246693
12	0x3d97a925	0.07405309
13	0xbd45c798	-0.04828605
14	0x3e120c59	0.14262523
15	0x3e24a34f	0.16077922
16	0x3c51d029	0.012805977
17	0x3c6364a1	0.013878972
18	0xbdc55e8e	-0.096371755
19	0xbe92f333	-0.2870117
20	0xbf18e029	-0.5971704
21	0xbee6abb9	-0.4505289
22	0xbe0f9c4c	-0.14024466
23	0xbe31daaa	-0.1736857
24	0xbee08cdf	-0.43857476
25	0xbd196835	-0.037452895
26	0xbdb520db	-0.08844157
27	0xbdbb5f1a	-0.091489986
28	0xbe1e6974	-0.15469915
29	0xbf1df1b6	-0.61696947
30	0xbe099977	-0.13437448
31	0xbe410a7d	-0.18851657
32	0xbdfd5709	-0.12370116
33	0xbe6e4521	-0.23268558
34	0xbead63a3	-0.3386508
35	0xbe0478e4	-0.12936741
36	0xbe47b652	-0.19503143
37	0x3e71dd45	0.23619564
38	0xbdd4f15a	-0.10397597
39	0xbde7df60	-0.11321902
40	0x3bd0964c	0.006365573
41	0xbef92002	-0.48657233
42	0x3d0f400f	0.0349732
43	0x3e080524	0.13283211
44	0x3dcc0c32	0.099632636
45	0xbdb87f9e	-0.09008716
46	0xbe051052	-0.12994507
47	0xbf1ccb2f	-0.61247534
48	0x3c43cc3f	0.0119505515
49	0x3e40e3dc	0.18836921
50	0xbe6ad8b9	-0.22934236
51	0x3b94dcfa	0.004542944
52	0xbdd2edb9	-0.10299248
53	0xbd11541e	-0.03548061

kg_net.complex_gru.gru_i.bias_hh_l0 f4 [54]
0	0xbd50b78b	-0.05095629
1	0x3da9c976	0.08290379
2	0x3e2b77f8	0.16744983
3	0x3de0baa5	0.109730996
4	0x3cd2d770	0.025737494
5	0x3e2d8f68	0.16949236
6	0x3d802add	0.062581755
7	0x3da0dcb6	0.07854597
8	0x3d850397	0.06494825
9	0x3dc9929b	0.09842416
10	0x3ddab659	0.10679311
11	0xbd7afb1a	-0.061274625
12	0x3d978a1f	0.073993914
13	0xbd437290	-0.047716677
14	0x3e121b8e	0.14268324
15	0x3e24a34e	0.16077921
16	0x3c753ffb	0.014968867
17	0x3c991420	0.018686354
18	0xbdd75383	-0.105139755
19	0xbe92ee24	-0.28697312
20	0xbf18dfbf	-0.5971641
21	0xbee6c731	-0.45073846
22	0xbe1641f1	-0.14673592
23	0xbe2dbda3	-0.16966872
24	0xbee08b93	-0.43856487
25	0xbdfc8966	-0.12330894
26	0xbdb94f56	-0.09048335
27	0xbdbca4c1	-0.09211112
28	0xbe1def77	-0.1542338
29	0xbf1c960b	-0.6116645
30	0xbe09065c	-0.13381332
31	0xbe3d5cb4	-0.18492395
32	0xbdfdd747	-0.123945765
33	0xbe6ef832	-0.23336866
34	0xbeb59893	-0.35467967
35	0xbe04a784	-0.12954527
36	0xbd2b1ddd	-0.041776527
37	0x3e7d8e93	0.24761419
38	0xbd074cc7	-0.033032205
39	0xbec1a0c9	-0.37817982
40	0xbde17e14	-0.110103756
41	0xbec8bf1a	-0.392083
42	0xbbe11ee7	-0.006870139
43	0x3e11fb37	0.14255987
44	0x3d1ed9b6	0.038781844
45	0xbe9feec8	-0.31236863
46	0xbdb967b9	-0.09052987
47	0xbdf1191d	-0.11772368
48	0x3d84d595	0.0648605
49	0xbdc860f0	-0.09784114
50	0xbd5614d2	-0.05226595
51	0xbd1414f1	-0.036152784
52	0x3d989f7b	0.074522935
53	0xbe044775	-0.12917884

kg_net.fc_out.0.linear_real.weight f4 [18, 18]
0	0x3e7562f1	0.23963524
1	0xbd999136	-0.074984
2	0x3c8f7c7f	0.017515419
3	0x3c05c044	0.0081635155
4	0xba2ac29d	-0.0006513985
5	0x3e1de502	0.15419391
6	0xbe925494	-0.28580153
7	0xbc9e377e	-0.01931357
8	0xbd2eaeeb	-0.042647284
9	0xbbea443a	-0.0071492465
10	0x3c105100	0.008808374
11	0x3e9233d9	0.28555182
12	0xbbaf41d2	-0.0053484226
13	0xbbac1afa	-0.0052522393
14	0x3c518c6a	0.012789825
15	0x3b1a7a6f	0.0023571511
16	0xbc7c9ffd	-0.015419004
17	0xbe21002b	-0.1572272
18	0x3d586a90	0.052836
19	0x3e17d0f3	0.14825802
20	0x3eab6827	0.334779
21	0x3f532aa3	0.82486933
22	0xbc979362	-0.018502895
23	0x3e89535b	0.26821408
24	0xbf4fee8b	-0.8122336
25	0xbd1743c4	-0.03692986
26	0xbeed033d	-0.46291533
27	0xbe0e7ac0	-0.13914013
28	0x3f15cca3	0.58515376
29	0x3b902b69	0.004399706
30	0xbeaa5981	-0.3327141
31	0x3f2cf0fa	0.675552
32	0x3e80e1c2	0.2517224
33	0x3ea25c88	0.3171122
34	0xbf29a6d5	-0.6627019
35	0xbf074dbe	-0.52853
36	0x3e167e08	0.14696515
37	0xbe11abad	-0.14225645
38	0x3e7107e6	0.2353817
39	0x3dfdedf5	0.12398902
40	0x3e43863d	0.19094177
41	0x3ea774df	0.32706353
42	0xbd93a147	-0.072084956
43	0xbe04d28b	-0.12970941
44	0xbd529369	-0.051410113
45	0xbdac1cba	-0.08403917
46	0x3ede2737	0.43389294
47	0x3e2cbed2	0.16869667
48	0xbea84e1f	-0.32872102
49	0x3dd0aeb9	0.10189576
50	0x3e142270	0.14466262
51	0x3d2d8302	0.042361267
52	0xbe700629	-0.2343985
53	0xbe03bb66	-0.12864456
54	0x3e78e690	0.24306703
55	0xbe6748e9	-0.22586407
56	0xbd9dcbe5	-0.077049054
57	0x3e0f3034	0.13983232
58	0xbd7a8848	-0.061165124
59	0xbd3879af	-0.04503792
60	0x3d0fcf57	0.035109844
61	0xbddab474	-0.1067895
62	0xbeec5297	-0.4615676
63	0x3c23daf3	0.010000932
64	0xbc29222a	-0.010323087
65	0x3eb41305	0.3517076
66	0x3dae0606	0.08497243
67	0xbe04e7c8	-0.12979043
68	0x3d088e1d	0.033338655
69	0x3d8c5b8d	0.068533994
70	0xbd934dac	-0.07192549
71	0x3d5285cb	0.051397126
72	0x3e265b64	0.162458
73	0xbc4b3385	-0.01240242
74	0x3e4d51a9	0.20050682
75	0xbe4b2fe0	-0.19842482
76	0xbc315ab7	-0.010824851
77	0x3dad2ed4	0.084561974
78	0xbaa03278	-0.0012222072
79	0xbcd6b270	-0.026208133
80	0xbc69ea84	-0.014277104
81	0x3e0af3de	0.1356959
82	0x3bc84ec6	0.006112906
83	0x3e8c8eab	0.27452597
84	0x3c96d9f6	0.018414479
85	0x3cbc5031	0.022987457
86	0xbc62d8bc	-0.013845619
87	0xbba81376	-0.005129273
88	0xbcd3da8b	-0.025861045
89	0x3b67af49	0.003535228
90	0xbe0d3b99	-0.13792266
91	0x3f7113fd	0.94171125
92	0x3f36ace1	0.7135754
93	0x3f334b7b	0.7003705
94	0xbe8a4145	-0.27002922
95	0x3f2f7dc2	0.68551266
96	0xbe1af443	-0.15132241
97	0x3b0269ba	0.0019899444
98	0xbdd033a6	-0.10166101
99	0xbd96a9ae	-0.073565826
100	0x3f1b525a	0.60672534
101	0x3e33f40c	0.17573565
102	0xbebb24f1	-0.36551622
103	0x3ec6e630	0.38847494
104	0xbdab2ae4	-0.0835779
105	0xbf417b5f	-0.75578874
106	0xbf350c46	-0.7072185
107	0x3e3bc2fd	0.18336101
108	0x3e78507f	0.24249457
109	0xbeb0722b	-0.34462103
110	0x3c3592ce	0.011082364
111	0xbc661e2b	-0.014045279
112	0x3e4d7f73	0.2006815
113	0x3e06cfd8	0.13165224
114	0xbc8c92c7	-0.017159833
115	0xbe7f9f58	-0.24963129
116	0xbd49b9bf	-0.049249407
117	0x3bfd6ec6	0.0077341525
118	0x3ba43e15	0.0050122836
119	0x3ec3a970	0.38215208
120	0xbc781b9e	-0.015143303
121	0x3cf37f15	0.029723683
122	0xbda6ac32	-0.081383124
123	0x3d3210f9	0.043473218
124	0x3cc5c8fa	0.024143685
125	0xbc186499	-0.009301328
126	0xbdbbbe78	-0.091671884
127	0x3e1e971f	0.15487336
128	0x3d01cd49	0.031689916
129	0x3dbb7d64	0.09154776
130	0x3e274811	0.16336085
131	0x3b5bbb77	0.0033528486
132	0xbca230c5	-0.019798646
133	0x3e2ecad9	0.17069568
134	0xbe24a142	-0.1607714
135	0x3e18b74e	0.14913675
136	0xbcaf40d8	-0.021393225
137	0x3cf1c9f6	0.029515248
138	0xbd935018	-0.07193011
139	0x3d0b4635	0.0340025
140	0xbb394ff7	-0.0028276423
141	0x3db76453	0.08954682
142	0x3c8a8c3a	0.016912568
143	0xbb9ed26e	-0.0048468625
144	0xbd6e2d89	-0.058148894
145	0xbe05ccab	-0.13066356
146	0x3eac39db	0.3363789
147	0x3ecef851	0.40423825
148	0xbe41a428	-0.18910277
149	0xbe74a294	-0.23890144
150	0xbd87ffd2	-0.06640591
151	0xbdf43e1d	-0.1192591
152	0xbf3a897e	-0.72866046
153	0xbe0acad5	-0.13553937
154	0x3d8c1f00	0.0684185
155	0x3eae8aea	0.34090358
156	0xbd689bcb	-0.0567892
157	0x3dac93f0	0.08426654
158	0xbecb5c4a	-0.39718848
159	0x3f58a838	0.8463168
160	0xbec012b7	-0.37514278
161	0xbd456082	-0.04818774
162	0xbe0c2d44	-0.13689142
163	0x3d90d3e4	0.07071665
164	0x3e7912ab	0.24323528
165	0x3f92b031	1.1460019
166	0xbed492cd	-0.4151825
167	0x3d18d905	0.03731634
168	0xbe0eaa31	-0.1393211
169	0xbe8eb662	-0.27873522
170	0xbec92cce	-0.39291996
171	0xbf11ea27	-0.56997913
172	0xbedf06fe	-0.43560022
173	0x3ebd022e	0.36915725
174	0x3f3a08c6	0.7266964
175	0x3e259e6f	0.16173719
176	0xbe06ba0e	-0.13156912
177	0x3eeb5e77	0.45970508
178	0xbf70930a	-0.93974364
179	0x3f049aa7	0.5179848
180	0xbe889d91	-0.26682714
181	0x3effe124	0.49976456
182	0x3ec498c8	0.38397813
183	0x3f4f4507	0.809647
184	0x3f007106	0.5017246
185	0x3ee44e25	0.4459087
186	0xbbca7ae4	-0.0061792005
187	0xbee221c1	-0.44166377
188	0xbf143d04	-0.579056
189	0xbe95950a	-0.2921527
190	0x3eaf3469	0.34219673
191	0x3d377a6a	0.044794478
192	0xbe015a05	-0.12631996
193	0xbc4b9c0c	-0.012427341
194	0xbf7e00ab	-0.9921977
195	0x3eab6944	0.3347875
196	0xbe99ca8d	-0.30037346
197	0x3e83444d	0.25638047
198	0x3e8e3d87	0.27781317
199	0xbd8ac907	-0.06776624
200	0xbd853ae7	-0.06505375
201	0x3e143115	0.14471848
202	0xbe0ad419	-0.13557471
203	0xb9bdc94c	-0.00036198867
204	0x3b885ffb	0.0041618324
205	0xbe0d9408	-0.13826
206	0xbe06369c	-0.1310677
207	0x3e2de3b9	0.169814
208	0x3e92fda3	0.28709134
209	0x3ea951bf	0.3307018
210	0xbe4eec7b	-0.20207398
211	0xbe2364d5	-0.15956433
212	0x3d5e46a3	0.054266583
213	0x3ce0e459	0.027452635
214	0xbdcb66c3	-0.099317096
215	0xbc26c470	-0.01017867
216	0x3e7a3b00	0.24436569
217	0xbb7d2707	-0.0038627998
218	0xbd770ac4	-0.060313
219	0x3ec34022	0.38134867
220	0xbe03b3f2	-0.12861612
221	0x3ec6f967	0.38862154
222	0xbd89091f	-0.06691193
223	0xbe2b16c1	-0.16707899
224	0xbe83d336	-0.2574708
225	0x3d702cc0	0.058636427
226	0x3e426fc2	0.18987945
227	0x3e8e0ea8	0.27745557
228	0xbc463c02	-0.012099268
229	0xbe1a8a3b	-0.15091793
230	0xbc872661	-0.016497793
231	0xbec964aa	-0.39334613
232	0xbebb5d1d	-0.36594477
233	0x3e1368a0	0.1439538
234	0x3e77d747	0.24203216
235	0xbdb649e4	-0.08900812
236	0x3d8d7eb5	0.06908933
237	0x3ea5dfe1	0.3239737
238	0xbd800e31	-0.06252707
239	0x3e17d829	0.14828552
240	0x3ed05466	0.4068939
241	0xbdb5bc67	-0.088738255
242	0xbe2ab01e	-0.16668746
243	0xbbad9ab7	-0.0052979845
244	0x3d43002c	0.047607586
245	0x3e913b2c	0.28365457
246	0xbe269c67	-0.162706
247	0xbe8ffc96	-0.28122395
248	0xbd2a508b	-0.041580718
249	0x3dc23daa	0.09484418
250	0xbe26c43d	-0.16285796
251	0x3e079b39	0.13242806
252	0x3dfcf58c	0.12351522
253	0xbea68096	-0.32519978
254	0xbd3ec139	-0.04657099
255	0x3e319f74	0.17345983

kg_net.fc_out.0.linear_real.bias f4 [18]
0	0x3ebc3e03	0.3676606
1	0x3e1f44ad	0.15553541
2	0x3ddabe45	0.10680822
3	0xbc65124b	-0.013981412
4	0x3e65e8ad	0.2245204
5	0x3d9f0ce8	0.077661335
6	0x3e551521	0.20808841
7	0xbd9cd9f9	-0.076587625
8	0xbc194469	-0.009354689
9	0xbe5fdcab	-0.21861522
10	0x3db588aa	0.08863957
11	0x3e6b870f	0.2300074
12	0xbd2b4f5b	-0.041823726
13	0xbcaa1dd4	-0.020766176
14	0x3dcf8ef0	0.10134685
15	0xbec1d1c5	-0.37855354
16	0x3d932baf	0.07186066
17	0x3ded5355	0.1158816
